hello alphagomoku
Model: "model"
__________________________________________________________________________________________________
Layer (type)                    Output Shape         Param #     Connected to                     
==================================================================================================
input (InputLayer)              [(None, 3, 15, 15)]  0                                            
__________________________________________________________________________________________________
conv2d_1 (Conv2D)               (None, 32, 15, 15)   896         input[0][0]                      
__________________________________________________________________________________________________
batch_normalization (BatchNorma (None, 32, 15, 15)   60          conv2d_1[0][0]                   
__________________________________________________________________________________________________
activation (Activation)         (None, 32, 15, 15)   0           batch_normalization[0][0]        
__________________________________________________________________________________________________
conv2d_2 (Conv2D)               (None, 32, 15, 15)   9248        activation[0][0]                 
__________________________________________________________________________________________________
batch_normalization_1 (BatchNor (None, 32, 15, 15)   60          conv2d_2[0][0]                   
__________________________________________________________________________________________________
activation_1 (Activation)       (None, 32, 15, 15)   0           batch_normalization_1[0][0]      
__________________________________________________________________________________________________
conv2d_3 (Conv2D)               (None, 32, 15, 15)   9248        activation_1[0][0]               
__________________________________________________________________________________________________
conv2d (Conv2D)                 (None, 32, 15, 15)   128         input[0][0]                      
__________________________________________________________________________________________________
batch_normalization_2 (BatchNor (None, 32, 15, 15)   60          conv2d_3[0][0]                   
__________________________________________________________________________________________________
add (Add)                       (None, 32, 15, 15)   0           conv2d[0][0]                     
                                                                 batch_normalization_2[0][0]      
__________________________________________________________________________________________________
activation_2 (Activation)       (None, 32, 15, 15)   0           add[0][0]                        
__________________________________________________________________________________________________
conv2d_4 (Conv2D)               (None, 32, 15, 15)   9248        activation_2[0][0]               
__________________________________________________________________________________________________
batch_normalization_3 (BatchNor (None, 32, 15, 15)   60          conv2d_4[0][0]                   
__________________________________________________________________________________________________
activation_3 (Activation)       (None, 32, 15, 15)   0           batch_normalization_3[0][0]      
__________________________________________________________________________________________________
conv2d_5 (Conv2D)               (None, 32, 15, 15)   9248        activation_3[0][0]               
__________________________________________________________________________________________________
batch_normalization_4 (BatchNor (None, 32, 15, 15)   60          conv2d_5[0][0]                   
__________________________________________________________________________________________________
add_1 (Add)                     (None, 32, 15, 15)   0           add[0][0]                        
                                                                 batch_normalization_4[0][0]      
__________________________________________________________________________________________________
activation_4 (Activation)       (None, 32, 15, 15)   0           add_1[0][0]                      
__________________________________________________________________________________________________
conv2d_6 (Conv2D)               (None, 1, 15, 15)    33          activation_4[0][0]               
__________________________________________________________________________________________________
batch_normalization_5 (BatchNor (None, 1, 15, 15)    60          conv2d_6[0][0]                   
__________________________________________________________________________________________________
conv2d_7 (Conv2D)               (None, 2, 15, 15)    66          activation_4[0][0]               
__________________________________________________________________________________________________
activation_5 (Activation)       (None, 1, 15, 15)    0           batch_normalization_5[0][0]      
__________________________________________________________________________________________________
batch_normalization_6 (BatchNor (None, 2, 15, 15)    60          conv2d_7[0][0]                   
__________________________________________________________________________________________________
flatten (Flatten)               (None, 225)          0           activation_5[0][0]               
__________________________________________________________________________________________________
activation_6 (Activation)       (None, 2, 15, 15)    0           batch_normalization_6[0][0]      
__________________________________________________________________________________________________
dense (Dense)                   (None, 32)           7232        flatten[0][0]                    
__________________________________________________________________________________________________
flatten_1 (Flatten)             (None, 450)          0           activation_6[0][0]               
__________________________________________________________________________________________________
value (Dense)                   (None, 1)            33          dense[0][0]                      
__________________________________________________________________________________________________
policy (Dense)                  (None, 225)          101475      flatten_1[0][0]                  
==================================================================================================
Total params: 147,275
Trainable params: 147,065
Non-trainable params: 210
__________________________________________________________________________________________________
model loaded weights_b2.h5
model loaded weights_w2.h5
train start
Epoch :  0  step :  10  time :  170.55282187461853
…
